…
rs are activated with the sigmoid activation function, a maxpooling layer is added in order to obtain dimesionalty reduction to increase training of the model"
   ]
  },
  {
   "cell_type": "code",
   "execution_count": 13,
   "metadata": {},
   "outputs": [
    {
     "name": "stdout",
     "output_type": "stream",
     "text": [
      "_________________________________________________________________\n",
      "Layer (type)                 Output Shape              Param #   \n",
      "=================================================================\n",
      "conv2d_1 (Conv2D)            (None, 223, 223, 8)       104       \n",
      "_________________________________________________________________\n",
      "max_pooling2d_2 (MaxPooling2 (None, 111, 102, 8)       0         \n",
      "_________________________________________________________________\n",
      "conv2d_2 (Conv2D)            (None, 110, 101, 16)      528       \n",
      "_________________________________________________________________\n",
      "max_pooling2d_3 (MaxPooling2 (None, 55, 41, 16)        0         \n",
      "_________________________________________________________________\n",
      "dropout_1 (Dropout)          (None, 55, 41, 16)        0         \n",
      "_________________________________________________________________\n",
      "conv2d_3 (Conv2D)            (None, 54, 40, 32)        2080      \n",
      "_________________________________________________________________\n",
      "max_pooling2d_4 (MaxPooling2 (None, 27, 11, 32)        0         \n",
      "_________________________________________________________________\n",
      "dropout_2 (Dropout)          (None, 27, 11, 32)        0         \n",
      "_________________________________________________________________\n",
      "conv2d_4 (Conv2D)            (None, 26, 10, 64)        8256      \n",
      "_________________________________________________________________\n",
      "max_pooling2d_5 (MaxPooling2 (None, 13, 1, 64)         0         \n",
      "_________________________________________________________________\n",
      "dropout_3 (Dropout)          (None, 13, 1, 64)         0         \n",
      "_________________________________________________________________\n",
      "global_average_pooling2d_1 ( (None, 64)                0         \n",
      "_________________________________________________________________\n",
      "dense_1 (Dense)              (None, 133)               8645      \n",
      "=================================================================\n",
      "Total params: 19,613\n",
      "Trainable params: 19,613\n",
      "Non-trainable params: 0\n",
      "_________________________________________________________________\n"
     ]
    }
   ],
   "source": [
    "from keras.layers import Conv2D, MaxPooling2D, GlobalAveragePooling2D\n",
    "from keras.layers import Dropout, Flatten, Dense\n",
…
